…
ects)\n","    plt.ylabel('percentage')\n","    plt.title('emotion')\n","    \n","    plt.show()\n","#------------------------------\n","\n","\n","\n","\n","\n","\n"],"execution_count":3,"outputs":[{"output_type":"stream","text":["number of instances:  35888\n","instance length:  2304\n","28709 train samples\n","3589 test samples\n","Model: \"sequential\"\n","_________________________________________________________________\n","Layer (type)                 Output Shape              Param #   \n","=================================================================\n","conv2d (Conv2D)              (None, 44, 44, 64)        1664      \n","_________________________________________________________________\n","max_pooling2d (MaxPooling2D) (None, 20, 20, 64)        0         \n","_________________________________________________________________\n","conv2d_1 (Conv2D)            (None, 18, 18, 64)        36928     \n","_________________________________________________________________\n","conv2d_2 (Conv2D)            (None, 16, 16, 64)        36928     \n","_________________________________________________________________\n","average_pooling2d (AveragePo (None, 7, 7, 64)          0         \n","_________________________________________________________________\n","conv2d_3 (Conv2D)            (None, 5, 5, 128)         73856     \n","_________________________________________________________________\n","conv2d_4 (Conv2D)            (None, 3, 3, 128)         147584    \n","_________________________________________________________________\n","average_pooling2d_1 (Average (None, 1, 1, 128)         0         \n","_________________________________________________________________\n","flatten (Flatten)            (None, 128)               0         \n","_________________________________________________________________\n","dense (Dense)                (None, 1024)              132096    \n","_________________________________________________________________\n","dropout (Dropout)            (None, 1024)              0         \n","_________________________________________________________________\n","dense_1 (Dense)              (None, 1024)              1049600   \n","_________________________________________________________________\n","dropout_1 (Dropout)          (None, 1024)              0         \n","_________________________________________________________________\n","dense_2 (Dense)              (None, 7)                 7175      \n","=================================================================\n","Total params: 1,485,831\n","Trainable params: 1,485,831\n","Non-trainable params: 0\n","_________________________________________________________________\n","WARNING:tensorflow:From <ipython-input-3-477d1a290dec>:120: Model.fit_generator (from tensorflow.python.keras.engine.training) is deprecated and will be removed 
…
